…
Namespace(batch_size=480, curveml_dataset=True, gpu='0', gt_column='label', log_dir='pointnet-nonormal-curveml-bs480/2023-11-11_00-06', mnist_dataset=False, num_classes=8, num_point=1024, num_votes=3, show_one_batch=False, show_predictions=False, use_cpu=False, use_normals=False, use_uniform_sample=False)
Loading the CurveML dataset...
Using column: label as ground truth...
.Warning: using only test set for dataloaders...
. DONE!
testDataLoader size: 117
one_batch: 2 - torch.Size([480, 400, 3])
==========================================================================================
Layer (type:depth-idx)                   Output Shape              Param #
==========================================================================================
get_model                                [480, 8]                  --
├─PointNetEncoder: 1-1                   [480, 1024]               --
│    └─STN3d: 2-1                        [480, 3, 3]               --
│    │    └─Conv1d: 3-1                  [480, 64, 400]            256
│    │    └─BatchNorm1d: 3-2             [480, 64, 400]            128
│    │    └─Conv1d: 3-3                  [480, 128, 400]           8,320
│    │    └─BatchNorm1d: 3-4             [480, 128, 400]           256
│    │    └─Conv1d: 3-5                  [480, 1024, 400]          132,096
│    │    └─BatchNorm1d: 3-6             [480, 1024, 400]          2,048
│    │    └─Linear: 3-7                  [480, 512]                524,800
│    │    └─BatchNorm1d: 3-8             [480, 512]                1,024
│    │    └─Linear: 3-9                  [480, 256]                131,328
│    │    └─BatchNorm1d: 3-10            [480, 256]                512
│    │    └─Linear: 3-11                 [480, 9]                  2,313
│    └─Conv1d: 2-2                       [480, 64, 400]            256
│    └─BatchNorm1d: 2-3                  [480, 64, 400]            128
│    └─STNkd: 2-4                        [480, 64, 64]             --
│    │    └─Conv1d: 3-12                 [480, 64, 400]            4,160
│    │    └─BatchNorm1d: 3-13            [480, 64, 400]            128
│    │    └─Conv1d: 3-14                 [480, 128, 400]           8,320
│    │    └─BatchNorm1d: 3-15            [480, 128, 400]           256
│    │    └─Conv1d: 3-16                 [480, 1024, 400]          132,096
│    │    └─BatchNorm1d: 3-17            [480, 1024, 400]          2,048
│    │    └─Linear: 3-18                 [480, 512]                524,800
│    │    └─BatchNorm1d: 3-19            [480, 512]                1,024
│    │    └─Linear: 3-20                 [480, 256]                131,328
│    │    └─BatchNorm1d: 3-21            [480, 256]                512
│    │    └─Linear: 3-22                 [480, 4096]               1,052,672
│    └─Conv1d: 2-5                       [480, 128, 400]           8,320
│    └─BatchNorm1d: 2-6                  [480, 128, 400]           256
│    └─Conv1d: 2-7                       [480, 1024, 400]          132,096
│    └─BatchNorm1d: 2-8                  [480, 1024, 400]          2,048
├─Linear: 1-2                            [480, 512]                524,800
├─BatchNorm1d: 1-3                       [480, 512]                1,024
├─Linear: 1-4                            [480, 256]                131,328
├─Dropout: 1-5                           [480, 256]                --
├─BatchNorm1d: 1-6                       [480, 256]                512
├─Linear: 1-7                            [480, 8]                  2,056
==========================================================================================
Total params: 3,463,249
Trainable params: 3,463,249
Non-trainable params: 0
Total mult-adds (G): 83.23
==========================================================================================
Input size (MB): 2.30
Forward/backward pass size (MB): 11240.14
Params size (MB): 13.85
Estimated Total Size (MB): 11256.30
…
